datafile/bias.npz (npz, 690 bytes, 2 tensors)

arr_0 f8 [1, 30]
00000000: 737e 7028 90a8 ecbf 1d18 c510 07bb cfbf
00000010: a428 ddcf fc73 f7bf ad7f 383d 5543 f5bf
00000020: 53a5 f73e 987b 8b3f 70d4 16ee 622d e8bf
00000030: ce46 d026 b28e 15c0 c0e4 cf7d 1b68 ccbf
00000040: 076b accc e480 ffbf ad86 1e6f 55f0 0fc0
00000050: 9960 1713 7460 0dc0 651b ef16 a1bc 07c0
00000060: c374 84e5 7c91 19c0 4dfc f100 734a 0640
00000070: 3f08 8008 cd79 cf3f f258 8d6e 6b15 f6bf
00000080: 3584 15f7 85f2 f23f b393 15bf 6fea 07c0
00000090: df8f f3f4 6591 00c0 b768 08c3 891d e7bf
000000a0: b045 73fe e9f0 f6bf e67f bfee aa2a f1bf
000000b0: d985 76f9 cc2d d2bf d807 9220 b2f1 0140
000000c0: ff0c 184d 9d9c f23f e07e 6e3e 821b eabf
000000d0: 0e92 50dd 25a9 10c0 fe34 d1fb 5307 1040
000000e0: 3f91 7601 5c31 09c0 7e4f ac1d d409 acbf
-0.8955765523750884 -0.2478951293834947 -1.4658172721561096 -1.3289387122567675 0.013419331952678226 -0.7555403375796583 -5.389351469480699 -0.22192710536163496
-1.9689682002123747 -3.992350452536661 -3.6720963946828076 -2.967104129001586 -6.392078005036811 2.78635216463548 0.24590456881566244 -1.3802294081156643
1.184209790393891 -2.989470951887108 -2.0709952484921668 -0.7223557290301618 -1.43381690401689 -1.072916920289566 -0.2840454517518914 2.2430155319752707
1.1632359515650135 -0.815858003556027 -4.165183504145274 4.007156309741957 -3.149101268225564 -0.054762486097529525

arr_1 f8 [1, 10]
00000000: bca4 d294 c96e e9bf 3d4e 6030 0599 16c0
00000010: ea34 54a6 c0dc 10c0 f700 afd7 47c4 0bc0
00000020: a1b9 587f 61e7 22c0 7726 b56b 2256 05c0
00000030: 9a03 ce88 04e0 fdbf c42a 4cd2 acf5 17c0
00000040: ece0 69c4 9bf7 13c0 c8e3 c3c9 a4ba 15c0
-0.794773855847914 -5.64943385684779 -4.215578650369233 -3.470840153721038 -9.451915721493437 -2.6670578398378058 -1.8671918243346455 -5.989917074107044
-4.991805142366712 -5.432269241887248
