datafile/weights.npz (npz, 190930 bytes, 2 tensors)

arr_0 f8 [784, 30]
000000 7e 17 c3 50 bb 5e c0 bf 4c 62 96 e0 34 c8 d5 3f
       -0.12789098208866884 0.3403446381794637
000010 59 e3 ee 39 f7 f9 00 c0 89 97 d9 ae 8a 9c e1 bf
       -2.122053577997957 -0.5503590979612777
000020 31 4c 1f 88 0e 58 f4 3f d9 8a 64 60 7e 87 f6 3f
       1.2714982335353506 1.40807950642982
000030 2e 23 b7 34 e9 4d e0 bf aa 72 6e 57 9c 23 c1 3f
       -0.5095106153104092 0.1338992525969805
000040 f0 6c d8 f4 a6 f3 d2 3f 06 87 6e af ad e7 e2 3f
       0.2961213484829406 0.5907810617829632
000050 29 de 67 84 0c 6a fe bf f5 ac a2 35 2f 1c b4 bf
       -1.9008908435915919 -0.07855506000003117
000060 10 e7 66 42 9b 4c f7 bf c5 f9 25 28 e0 91 e0 bf
       -1.4562027543856324 -0.5178070816180528
000070 3f ef 95 73 85 1e f4 3f 22 97 6f 34 79 78 eb bf
       1.2574514880243013 -0.8584562324656171
000080 95 f5 23 d6 ea b8 f0 3f 39 6b f1 fe 16 46 da bf
       1.0451458325254397 -0.4105279435804508
000090 0f 7c d0 01 81 eb de 3f 87 84 ba 87 a6 e2 e6 bf
       0.48312401940523925 -0.7151672984074516
0000a0 6d f5 ef bc be 02 d6 bf 9b e8 3b da c3 d7 b0 bf
       -0.34391754580413797 -0.06579231336573559
0000b0 94 b2 d3 ed e4 85 e8 3f 2c be 94 32 57 9d e0 3f
       0.7663445134217732 0.5192066181097679
0000c0 1a 9a 5d a1 dc f0 02 40 70 ba 1e 93 85 1a a9 3f
       2.3676083189668704 0.04903047009371597
0000d0 ee 73 f1 98 2b 6c d3 bf 7b 3b 0e da ec da f2 3f
       -0.30347719131333306 1.1784485357090648
0000e0 11 8d 0c 27 52 7e e8 bf 75 5b 6f 10 7f 50 d0 bf
       -0.7654200327564543 -0.2549131069658224
0000f0 a0 33 15 96 8e d9 b1 bf fa 11 1f 74 74 b8 e5 3f
       -0.06972590602999995 0.6787664669032545
000100 ca d0 89 86 3b 48 f2 3f fb 58 e0 fe db 67 e4 3f
       1.1426348929790486 0.6376781442693579
000110 42 67 b7 d6 cc 8f e2 bf 9d de 7d bf 26 96 de bf
       -0.5800537294082704 -0.4779145116840285
000120 1c ed 6d 3c b1 ab c1 3f 24 b6 b2 ed 6e 82 e6 bf
       0.13805213404325734 -0.7034220354595999
000130 91 51 25 b4 da e9 f2 bf 47 8c dd 79 64 d0 f6 3f
       -1.1820933377212877 1.4258770714157138
000140 94 fd 7b ea 0e ec e7 bf b0 97 8b c0 1d 06 dc 3f
       -0.7475657062313297 0.43787330439806293
000150 b1 79 58 dd d8 34 c5 bf 5b f2 03 3a 8a cd e5 bf
       -0.1656752663411232 -0.6813403256524667
000160 ad dd 8b b6 45 9d f7 3f f7 ab 5f 41 30 aa da 3f
       1.4758965616909834 0.416637481538316
000170 5c 1e 87 76 cf d4 ef bf 47 0a 11 ff 03 40 b7 3f
       -0.9947278323169928 0.09082055070124638
000180 49 c1 d9 14 03 ba e1 3f f7 da 75 a2 5f 05 ec 3f
       0.5539565474737539 0.8756559536985539
000190 dd 93 30 68 db 44 dd bf 00 27 28 51 5d df f0 bf
       -0.45732770132809525 -1.0545323534192335
0001a0 f8 5c d6 72 a1 0d ce bf a1 15 00 85 01 e3 e2 3f
       -0.23479097468655374 0.5902106855070778
0001b0 34 cb 97 89 d2 ca f6 3f 69 80 d9 9e 31 9f e1 3f
       1.4245171904301062 0.550682840588718
0001c0 76 36 48 2a cb 7c b5 3f d9 51 2d 17 6d 6d ed bf
       0.08393544943120354 -0.9196076824833269
0001d0 5a f4 da 60 74 b8 fb bf ae 38 29 8e e6 58 e2 bf
       -1.732532862034779 -0.5733521248419231
0001e0 43 31 9c 64 6d a3 ba 3f d6 ee 12 26 0c 0e de bf
       0.10405620294858857 -0.46960738866958474
0001f0 4e 65 19 52 a1 5e eb bf 5d 24 b1 ef b7 c0 f9 bf
       -0.8553015330791511 -1.6095504153220397
000200 eb d8 04 74 28 d6 fc 3f 23 ae 60 78 fa 19 f3 bf
       1.802284672926869 -1.1938423826458198
000210 99 42 e0 4c 00 ab e0 bf c1 85 d3 a3 b6 f9 d0 3f
       -0.5208741666302387 0.26524129866274043
000220 ff cb c6 d4 3a 8f d9 3f fc d6 ea e5 cf df a9 3f
       0.39936705378494247 0.05053567582710447
000230 bd 71 81 06 da f3 f9 3f 99 f9 b0 4c 11 59 d6 bf
       1.6220340971113807 -0.34918625344644166
000240 b1 70 13 69 07 6e c8 3f e3 c1 6f dd b2 bd ff 3f
       0.19085781698857354 1.98381315706876
000250 4b de eb 6d 9e 5f f7 bf 2a f7 1a b8 34 2b f0 3f
       -1.4608444494059707 1.0105483237852675
000260 b3 7e ea f2 98 cf dc 3f 33 01 d9 38 7e 91 00 40
       0.45017074320092404 2.0710415307259153
000270 b3 e7 77 20 fc 8b f2 3f 79 90 f4 c6 58 54 e3 bf
       1.1591759937568724 -0.6040462385031012
000280 66 66 f6 63 d2 1c d6 bf 7c 6d b1 03 7d c7 dc 3f
       -0.34550914537394417 0.44967580185558353
000290 38 86 01 e2 21 8d e7 bf 95 61 3b 30 ca 8a d1 3f
       -0.7359780706576151 0.27409605703498957
0002a0 7d 2e be 78 b1 41 f5 bf 7b e9 ff 31 d5 63 ee 3f
       -1.3285383907813462 0.9496866203838147
0002b0 c8 bd fc 71 95 72 e8 bf e9 7f 68 9d 56 d6 e2 bf
       -0.7639872766794094 -0.5886643480662289
0002c0 8d b9 da 80 9c c7 c2 3f 9e 5c a4 2c 1d 90 e4 3f
       0.1467166546985478 0.6425920364298638
0002d0 cf 3b d6 fd 4c 0d e5 bf c8 0c 0b 01 03 1f c3 3f
       -0.657873626494501 0.14938390303550464
0002e0 b2 25 8a da 51 75 0a 40 de 64 ba 77 70 be e7 3f
       3.307285029736442 0.7419969881476864
0002f0 33 f5 6a 86 50 0d c8 bf ba 02 32 44 09 a7 f1 3f
       -0.18790632785195668 1.1032803214913387
000300 cd 4a 81 75 e4 46 df bf 21 05 6e 15 eb 6d bf bf
       -0.48870192980863864 -0.12277097008884087
000310 bd 27 d8 dc 21 bc bf bf e2 f1 81 13 4a 82 de bf
       -0.12396442071636123 -0.47670223145521906
000320 11 32 99 4c dc 5e 1d 3f f9 c5 e4 2a 2e b3 00 40
       0.00011203975295721198 2.0874904013696747
000330 8a 61 4a c4 11 ba dd 3f bc 4e bc 2e 46 b8 f0 3f
       0.4644817749881659 1.0449888063057378
000340 09 3a c1 87 ce 40 f1 bf 50 b0 91 71 f0 f5 eb 3f
       -1.0783219626351885 0.8737718790193956
000350 28 6a 77 4b 75 26 f2 3f f7 9b 39 08 fe 8c e7 3f
       1.1343892047795041 0.7359609757085072
000360 47 64 71 78 5d fe f2 bf 8b c1 e0 93 d6 49 f4 bf
       -1.1871008591463281 -1.2680269028170155
000370 dd 4e a6 6a 41 fc e0 3f 1d ed 47 a3 b2 48 fb bf
       0.5307929118157194 -1.7052484872973033
000380 fc 93 15 24 dd 30 d7 bf 84 e6 04 fc b6 a8 e6 bf
       -0.36235741161209467 -0.708095066285026
000390 76 88 0b 29 bd cb af bf 87 0c 5d ce f1 61 08 c0
       -0.062101279507047843 -3.047824489798191
0003a0 40 2b df 2a be 90 08 c0 27 d8 b7 b5 5a 5c f1 3f
       -3.0706752156596906 1.085047445141308
0003b0 b5 45 fb f5 03 5b d2 bf 99 e7 a0 2c 00 73 fd 3f
       -0.28680514356264136 1.8405763381292444
0003c0 9f 7b 9f 60 fc 50 fb bf 18 00 cd f5 33 d2 d4 bf
       -1.7072719358763846 -0.32532977107985195
0003d0 dc 1b f5 f5 c9 b8 dc bf d7 79 27 70 12 ff e2 bf
       -0.4487786199501309 -0.5936367216598296
0003e0 17 67 05 29 88 f8 fd 3f fb 43 33 69 62 71 ed bf
       1.873176727522553 -0.9200908713047505
0003f0 37 49 f4 82 1d 33 c9 bf 60 d1 82 40 7a c0 b1 3f
       -0.19687241453409296 0.06934322428680195
000400 4f 82 0f ac 19 f9 cc 3f 1d 25 a1 d4 58 e8 f3 bf
       0.22635193730731593 -1.244225340446355
000410 0b 3b b7 59 66 08 ee 3f 8f d9 1e 96 09 58 e9 3f
       0.9385253669987333 0.7919967586556583
000420 6f 1a c2 56 54 6d d9 bf 35 08 9c bd 20 d9 e7 3f
       -0.3972979399917795 0.7452548697767784
000430 1e b1 5d da db 87 f9 3f 7a e9 8a 5e 33 3f f4 3f
       1.595668652526974 1.2654298489638607
000440 81 ab 35 89 e4 46 f0 3f 09 20 da 92 a6 58 b9 bf
       1.017307792639912 -0.09900895200019035
000450 96 c5 71 d2 df ff e6 3f 37 d0 bf 61 4e 73 e9 3f
       0.7187346563570596 0.795325461308045
000460 7a 4d 7b 34 31 9a af 3f 8e 3a f8 4f 25 9f f6 3f
       0.06172326818127778 1.413853943234844
000470 9c 74 15 de e9 3d e7 3f 9a 26 3b b8 8c ae f5 bf
       0.7263078057836938 -1.355114669468469
000480 55 04 50 e5 b4 4f d1 bf dd f3 2b d4 e3 28 f4 bf
       -0.27048990625195773 -1.2599828994709619
000490 65 c1 1d b4 28 36 d9 bf 85 e7 36 9a 99 c8 e0 3f
       -0.3939306029269772 0.52448730583204
0004a0 a0 a4 97 c3 56 83 cf 3f 1b 92 84 7c f8 36 d0 3f
       0.24619564581306452 0.2533551422114059
0004b0 6a 1b c5 82 c9 f7 f8 bf b6 89 94 bb b8 f0 e4 3f
       -1.560494910068622 0.654384962432508
0004c0 9f ff 4f 17 48 93 d4 3f d6 b0 37 3e 1f 6d b1 3f
       0.32148935581789745 0.0680713202379509
0004d0 fa 44 21 de 9a 36 da bf cb b0 b6 81 a6 c6 f6 3f
       -0.4095828217733267 1.42349863690747
0004e0 41 16 ab 9e b2 61 f7 3f e8 d5 11 be c4 f1 e4 bf
       1.46135198573883 -0.654512759427857
0004f0 56 7c f9 35 5b 51 fb bf 77 63 c4 eb a2 5c a2 bf
       -1.7073623760586734 -0.0358630097200096
000500 17 f4 70 4d 17 83 e0 bf 3b a0 84 1c 72 1d c9 bf
       -0.5160023224376599 -0.19621111290439494
000510 be e5 26 fa a5 33 7f bf ae 0b d9 60 d6 06 f7 3f
       -0.007617615078225835 1.439169290840009
000520 16 cb 09 45 85 4b d6 3f 90 e1 f0 0b 6e ee c3 bf
       0.348359410686656 -0.15571380217603492
000530 73 39 d7 7d d7 2a e6 3f 3a 5b 32 a3 ec 5b cd 3f
       0.692729707510621 0.2293678089960965
000540 3d c6 82 5f d4 6a e9 bf 1e b2 33 4e 2e a0 f7 bf
       -0.794290720505337 -1.4766066603434704
000550 1b f2 d3 a9 75 0f c8 bf 42 26 e2 bd b8 b9 e5 3f
       -0.18797179024103702 0.6789210995349964
000560 ce 2d ef c5 8b 9d e0 3f d1 da cb 36 be 05 f9 bf
       0.5192316881088404 -1.5639021053772704
000570 3c 29 ae 44 8d 1f e2 bf 80 8d b6 89 74 ea e7 bf
       -0.5663515416538654 -0.747370022745983
000580 be 96 74 2e 56 f9 ef bf e4 8e 7b 1c 80 52 d7 3f
       -0.9991866023380778 0.3644104269171591
000590 0f c4 92 2f 14 75 f0 bf ee 01 5c ef 0f 6b e6 3f
       -1.0285837038356964 0.7005691218365067
0005a0 5c 2a dc 25 7e 02 d2 bf b6 d8 8d b4 7d af c0 bf
       -0.28140214631335936 -0.1303555614101179
0005b0 c8 4b 66 fc 7a 84 d0 bf 77 f3 42 72 1e 5c f1 bf
       -0.25808596275708995 -1.084989973386852
0005c0 98 1e fc 90 78 96 e4 3f 0f 95 e8 7d 87 f0 00 40
       0.6433680373892967 2.117445930157039
0005d0 7a 9b f6 7f 01 b9 f7 bf 0b 5d 81 71 44 f2 d2 3f
       -1.4826674459997933 0.2960368259859513
0005e0 2d 5e 1f ce 22 ef e9 3f 11 58 9e fd 2e 79 ef bf
       0.810441401084011 -0.9835429147231044
0005f0 8b cc fa 80 27 f3 f9 bf 5c 5c 7c 8d 92 85 f4 3f
       -1.6218638456601038 1.282610466650815
000600 30 5f 10 0e 0d c4 d7 bf 2e 5d 9b 01 e4 95 00 c0
       -0.3713410031646047 -2.073188793710549
000610 6d 88 0f a6 a3 b6 f8 bf 3f 00 85 41 b1 c8 ea 3f
       -1.5445896612877974 0.836998584716646
000620 ce 0b 39 ce 66 80 d5 3f c2 d2 88 fe ef aa f1 bf
       0.3359620107550513 -1.1042327826263976
000630 06 0e 3d 1a 7c 3c f2 3f 84 a5 74 0e 65 ca d7 bf
       1.139766790861246 -0.37172819530186296
000640 a9 13 a4 08 67 b9 b4 3f 5e 42 ca 25 47 25 d1 bf
       0.08095401726684649 -0.2679002636951163
000650 b5 60 be 9b 2c 73 f8 bf 5a cd fd ef 43 ce 93 bf
       -1.5281187137352792 -0.019341527483857625
000660 52 df 76 3d a0 5d f9 3f 47 e0 24 58 5d 75 ea bf
       1.5853578949881535 -0.8268267365992948
000670 40 7e db 4c 35 d6 f1 bf 6a 48 3c c0 09 66 c8 3f
       -1.1147969248048781 0.19061395536897702
000680 b5 6a b1 6a 56 b3 fc bf cf ec 55 bc 4b b1 fb 3f
       -1.7937835853287372 1.7307851178036804
000690 b0 92 a6 27 48 1f d5 3f 37 23 37 30 ba 09 b6 3f
       0.33003429290901476 0.08608592679150893
0006a0 bf 58 48 57 7f 4b 01 40 2f dd cf ff f5 1f d7 bf
       2.161863977332444 -0.36132574063909123
0006b0 f8 34 f5 91 fa 9d fb bf 11 c1 de b3 4d 7d f0 3f
       -1.726069040439425 1.0305916811158264
0006c0 9b 81 6a 84 fb aa fe bf 2a ab ba f5 f5 aa cd 3f
       -1.9167437717916076 0.23177980898375355
0006d0 5c a3 a0 97 17 2f ed bf 63 ce 20 d1 9d 8e e8 bf
       -0.9119985543703524 -0.7674092373403706
0006e0 7c a0 e7 ce f3 84 f2 bf ec c9 08 4c db d3 b3 3f
       -1.157459076139303 0.07745142561251556
0006f0 52 44 a2 b9 1a 33 9f bf a5 df bd 35 2f 7b dd bf
       -0.0304683852960504 -0.4606435799428204
000700 21 bd 05 ed b8 41 a9 bf e2 73 49 18 11 aa c1 3f
       -0.049329546864891556 0.13800252614865288
000710 3b 0f 33 1a 94 2a ea 3f 72 10 2e bb 61 bc d8 bf
       0.8176975738246947 -0.38649791030207503
000720 17 3b c8 ae f0 82 f0 3f 85 b7 64 b4 0c d4 e8 bf
       1.0319678142001913 -0.775884964304837
000730 7e 2a 8a eb c5 ef d1 3f 90 68 d0 13 47 b3 e4 bf
       0.28025959016728297 -0.6468844782823613
000740 70 7e fe 79 3d 03 9b bf 7b 60 cc eb 75 18 d7 bf
       -0.026379547663621883 -0.36086795832807866
000750 30 06 4e e1 a7 78 e6 3f 73 c9 c8 f1 64 53 f0 bf
       0.702228488968279 -1.0203599400234367
000760 65 35 04 f8 f2 5f f7 3f 05 44 91 6f 39 99 cf 3f
       1.4609250724928071 0.24686353633526906
000770 a9 11 f5 99 0d 15 00 40 c5 a0 c1 e7 5d c8 0c 40
       2.010279848853504 3.597835360142286
000780 b0 56 58 5a 0c 21 da 3f a6 d3 7e bc 66 a1 01 c0
       0.408267105319605 -2.2038092352108434
000790 50 7b 20 4d f9 b6 ea 3f 6d 3b c3 4a c5 54 e3 3f
       0.8348356729874045 0.6040979824264078
0007a0 2b de 58 8d 65 c0 c1 3f 04 29 6d a8 9b 28 ec 3f
       0.1386839809581358 0.8799570359781517
0007b0 88 13 43 9d 5c 18 e7 3f c8 69 8f 05 b1 5b ea bf
       0.7217238494418874 -0.8236928089711961
0007c0 a1 44 d3 77 71 0e e4 3f 15 f6 64 44 ac 4e ea bf
       0.6267630901658273 -0.8221036277606709
0007d0 a5 29 b2 c4 f7 ac b9 3f 59 9e e6 4b 18 dc d2 3f
       0.10029552986285369 0.2946835271090769
0007e0 05 2c 04 72 7e 25 e9 bf d5 09 dd 30 24 78 e1 3f
       -0.7858268954163355 0.5459156946529286
0007f0 e4 6f 82 b4 31 52 d8 bf 31 39 60 e5 74 af e3 bf
       -0.3800167334354667 -0.6151680450437081

arr_1 f8 [30, 10]
000000 39 b3 fc 8a 7e 04 04 c0 c7 93 f9 e1 45 06 f7 3f
       -2.5021944864623973 1.4390314890999762
000010 11 a8 6f 57 9b f8 10 c0 06 9d 86 3b 89 11 10 40
       -4.24278008097646 4.017125063029431
000020 85 c0 f1 9c cb b9 a0 3f d2 8f e6 0e 57 4a 09 c0
       0.03266750613045225 -3.1612988628494145
000030 db 27 c0 fe 9c eb f3 3f 41 58 d1 6e b0 0e 18 c0
       1.2450227690883284 -6.014344913031949
000040 37 83 2b 5e 42 74 02 c0 8e 50 ec f5 77 4a 01 40
       -2.306767211630724 2.161361619257213
000050 cb 8f 73 94 c5 54 ed bf 2b ca 96 1a ed e5 13 c0
       -0.9165981196824701 -4.974537291959261
000060 b2 cc 54 f7 f7 08 0d c0 6b cf 10 9b 05 16 f1 3f
       -3.629379207873705 1.0678764397861993
000070 51 a2 38 d0 61 1a 19 c0 49 6f 11 2c 50 5f e0 bf
       -6.275763753372829 -0.511634908743397
000080 99 6c f6 88 2d 46 03 c0 82 d4 90 ee bb 81 16 c0
       -2.409266538639326 -5.626693465795258
000090 43 c3 95 df 15 06 f6 bf 9a 07 db 00 e9 6e 08 c0
       -1.3764857038297158 -3.0541553561060484
0000a0 3b 09 39 cb 33 c2 13 c0 ad ff 59 2a 23 9e 0c 40
       -4.939650702816205 3.5772155102458414
0000b0 fb 42 ca f4 a9 f5 12 40 91 cf 56 53 6e 00 17 c0
       4.739906143994399 -5.750420858548652
0000c0 53 9f ef b8 54 d7 d9 bf 89 b8 9e d6 02 20 11 c0
       -0.40376775798948933 -4.281260827481796
0000d0 f8 1c e9 75 36 a0 cf bf 50 85 02 b9 d9 fa 0a 40
       -0.24707680470803672 3.3724855855840943
0000e0 5a 94 52 fb a3 32 0c c0 ea cf 99 ff b7 93 14 c0
       -3.524726832826258 -5.14425658584876
0000f0 59 73 8d 80 fd 59 fb bf e3 a3 70 39 f6 98 15 c0
       -1.7094702741225858 -5.399376771450053
000100 7e 4c 94 ab f2 6a 0b c0 ec c1 74 1e aa ef 0b c0
       -3.4272206692344858 -3.4920236949330867
000110 de c8 9e f0 69 b6 10 40 f1 35 6d 5e 55 d2 c3 3f
       4.1781385037340595 0.15485636816667595
000120 35 db 25 64 86 11 02 40 a7 37 07 6b f3 3b 05 c0
       2.2585571121266192 -2.654272876889951
000130 19 41 58 4d c1 48 05 40 0d b6 75 23 99 58 fe 3f
       2.6605249445493766 1.896630419268493
000140 fd f1 ca 34 08 a5 11 c0 97 76 5c cd 56 54 07 40
       -4.411164116751476 2.9161811870424788
000150 7d 39 56 0e 5c 79 fd 3f 80 70 44 2d 5b 68 0a c0
       1.842128807070906 -3.300955155993563
000160 c0 ad 93 9e 62 a8 ea bf 69 b5 65 d4 b6 5c 0c 40
       -0.8330548379139415 3.5452705949343692
000170 91 43 c7 cb 15 de 02 40 9a 57 15 38 57 1c fb bf
       2.358440010088494 -1.6944191160923538
000180 59 0a 50 3a 84 1d 08 40 c9 38 97 46 1f 2d f0 bf
       3.0144123607326887 -1.0110161549996965
000190 ec b1 6d 16 4c 0e fa 3f fc 21 3f 04 99 40 ff 3f
       1.6284905315507059 1.9532709279902738
0001a0 b6 e0 ba 6e 29 03 f5 bf db 04 87 b9 d4 a2 d6 bf
       -1.313271935023335 -0.353688412837142
0001b0 00 22 51 39 f6 53 10 c0 50 2f 9e 51 e6 d6 e9 bf
       -4.081993957116083 -0.8074828714465898
0001c0 12 ab bb 0e 17 bb 06 40 9b a7 61 07 ad 99 f2 3f
       2.841352572538548 1.1625185287798334
0001d0 8c a8 bc 7a ab 6b 04 c0 0d f9 2c f0 fa 39 11 40
       -2.5525731648277254 4.3066213157128574
0001e0 11 e2 cd 8a 9f b4 10 c0 ce 0b 9a c6 23 db f9 3f
       -4.176389855209451 1.6160009153252193
0001f0 d0 51 ff 5c 88 9b 17 40 cc 40 0a 48 5d cc 16 40
       5.90188737209651 5.699574590326119
000200 1e 5b 19 00 f1 54 20 c0 0f 3a 17 cd b0 94 08 c0
       -8.16590118703385 -3.072602846404386
000210 a5 61 41 37 95 8a 17 c0 f2 89 bf 7e 31 62 0e 40
       -5.8853348382621435 3.797945966930677
000220 f5 da 39 bc 4b 67 21 c0 5e 38 f9 41 47 f0 22 c0
       -8.701749689161696 -9.469293653175722
000230 8a 16 b3 09 20 5e 14 c0 53 7e 6d 31 28 02 06 c0
       -5.091919089847247 -2.7510532247104407
000240 2e af 89 e1 f5 03 11 c0 7f 93 f0 fb d1 ed 13 c0
       -4.2538676491056275 -4.982246338423351
000250 d6 6e b3 90 78 78 15 c0 c7 02 4f 81 e0 57 21 40
       -5.367647419883459 8.671634713072661
000260 18 8d 27 f0 da f1 01 c0 88 ba 4b a3 4e c2 10 c0
       -2.2430933725423863 -4.18975310468398
000270 a3 dd 58 62 47 55 1a c0 d6 bc 9c b0 c5 db e0 3f
       -6.583280121492325 0.5268276643236287
000280 b1 b7 f8 d4 9e 3b f5 3f 60 23 ba 2e e7 22 22 40
       1.327055770797852 9.068170032712885
000290 0f ea a9 44 0e ff 0a c0 b3 88 9b 85 c1 5b 0d c0
       -3.3745389332154967 -3.669802707489987
0002a0 79 34 71 1f 0e 83 12 40 f2 9a 73 b2 c3 bb 0b 40
       4.627983561787112 3.4666818563013004
0002b0 47 08 0a ec c1 45 0b c0 11 95 41 e0 5e 81 f8 bf
       -3.409061283165133 -1.531584621430117
0002c0 bd 2c 70 14 e6 c2 1e c0 0c 11 fb 85 ea 69 12 c0
       -7.690330809923748 -4.603433698128594
0002d0 1f 59 3d ca 0b 7f 10 c0 09 3b 97 23 52 b8 01 40
       -4.124068412775414 2.2150004177596014
0002e0 09 55 61 6c fb eb 21 c0 f6 e2 49 b3 4a 49 11 c0
       -8.960902583009117 -4.321574021706274
0002f0 c8 17 b7 c8 8c 09 fb 3f bb 17 cf 2a c3 3e 03 c0
       1.6898315277517089 -2.4056456894349743
000300 72 51 47 3b 8e 13 06 c0 8b df b5 25 fa 36 15 40
       -2.759548628915746 5.303688611245785
000310 80 c6 c5 7a 8c 20 e6 3f 8d 85 95 28 ae 5e e5 bf
       0.691473235883862 -0.6678076546342467
000320 56 d8 a2 42 ad 27 f8 bf 11 e2 02 15 7a 2a 07 40
       -1.5096867182706055 2.895740665579304
000330 77 bf 9d 63 03 fc 14 40 9f a1 65 93 8d 78 19 40
       5.246106678488892 6.367727568700871
000340 b8 f0 03 e7 0f c6 cd 3f 5e f0 ec d6 db 74 24 c0
       0.232606876183018 -10.228239742682657
000350 28 46 4a db 4c ff 06 c0 ec 46 c7 04 90 61 f5 3f
       -2.8746583110849038 1.3363189875275863
000360 9a b7 4d a4 34 39 0a c0 8f 05 18 14 71 19 ff bf
       -3.277932437535992 -1.9437113556781218
000370 d8 48 59 00 a4 34 20 c0 7e 32 4b d7 01 be 01 c0
       -8.102813731097214 -2.2177769489119887
000380 a0 22 a7 83 67 ff 16 40 c0 9d b0 55 2e 1e fe bf
       5.749418313099028 -1.8823684069883342
000390 85 5c 14 70 da b8 13 c0 82 44 b5 ae 17 5e fa 3f
       -4.93052077411915 1.6479718040975802
0003a0 10 0c 62 91 ad e9 0c c0 bb 28 42 5c 29 66 13 40
       -3.61410058575121 4.849767152345687
0003b0 46 9b d8 55 69 b4 12 c0 8d c9 ee d7 26 af 1e c0
       -4.676183072419752 -7.671046613645001
0003c0 82 75 54 4e fe 79 13 c0 3a 80 aa 39 87 1f 09 40
       -4.869134162812204 3.1403946404607526
0003d0 75 49 e2 ba f1 25 03 c0 cb 0a d4 a6 dc 47 01 40
       -2.3935274696643156 2.160088828416837
0003e0 62 79 66 48 dc 58 f2 3f 62 8e 6f d0 cb 25 0b c0
       1.146694453061706 -3.3934551509899373
0003f0 1e 13 8f 6a 15 c8 13 c0 8b d0 33 1c dd 5b e3 3f
       -4.945394196493707 0.604963831980528
000400 54 bf 31 96 00 54 04 40 ca d9 bc 99 73 92 f0 bf
       2.5410167440349287 -1.0357547765139423
000410 6b 46 2d 4f 42 00 05 40 dd 6c 02 2b da e6 ee bf
       2.6251264749233107 -0.9656802024868757
000420 41 8c 3f 88 ec 77 b6 bf 46 f5 fe d7 15 85 e9 bf
       -0.08776739431736848 -0.7974957674665937
000430 d2 6e 00 6b 9d 97 23 40 7f 1b 88 c7 71 04 e5 3f
       9.796122878840297 0.6567925355055734
000440 8b 6c c1 a5 ec ae 25 c0 45 ea 52 25 58 04 14 40
       -10.841649227010086 5.004242499528634
000450 f7 d9 3e ae 34 7a e8 3f 2e 3d fe fb ed 37 0a 40
       0.7649176982147868 3.2773093878710347
000460 8e fb ca f2 19 db dd bf 30 5f ca 61 e5 7f 12 c0
       -0.4664978858017371 -4.624898460366055
000470 c0 20 a7 48 67 98 05 c0 98 ca 14 4d 2c d0 10 c0
       -2.6994157482150456 -4.203293995279317
000480 23 fe e2 65 0d 87 24 c0 dd 20 8d da 5a 0c ed 3f
       -10.263774093588898 0.9077581661777249
000490 7f ab 6e a8 bc 70 08 c0 2f 14 30 1e 0a 62 13 c0
       -3.0550473364614272 -4.845741721806049
0004a0 24 b8 ac 84 a0 c6 0d c0 23 19 14 e0 62 65 19 c0
       -3.721985851784682 -6.349009991862007
0004b0 a6 78 40 a7 63 92 05 c0 34 53 b0 07 e5 20 00 c0
       -2.6964791361379694 -2.0160618401227115
0004c0 66 17 27 4e fe 1b fe bf 33 bb f3 2e 4a 76 eb bf
       -1.8818343212928652 -0.8581896702797621
0004d0 aa fe 96 7b d1 9e 0d c0 9d 24 5c b1 9e 9a 0b c0
       -3.7025479941801978 -3.450497995018465
0004e0 00 07 7b 40 07 4d ee bf 78 54 75 3e ff 16 1b 40
       -0.9469028720270387 6.772458053504231
0004f0 9d 4d 85 b9 8e ed 0a c0 72 7e d6 a4 8a 3d 1c c0
       -3.365994881992903 -7.060099196998282
000500 ef 6f d4 19 d8 74 03 c0 69 7b 07 c3 f9 fd 18 c0
       -2.43205280475194 -6.248023078281087
000510 1f c1 af 63 1d 8b 04 40 cb 90 e3 89 d6 72 f7 bf
       2.5679271495829563 -1.465536631229997
000520 de 86 a8 26 7b c8 0f 40 29 e6 6d 83 a5 80 b9 bf
       3.9728911419086748 -0.09961924036715487
000530 79 a7 59 fe d7 74 04 40 76 c2 59 d9 5b a4 d6 3f
       2.5570526000128067 0.3537816641392405
000540 ae 8b a0 7a 7b d8 0c c0 68 b5 36 a6 1a fc 0e c0
       -3.6057042675251614 -3.8730977044530626
000550 01 5d 17 53 ca 0f f5 bf f7 f7 57 f7 8c a8 10 c0
       -1.3163550611259895 -4.16460024332445
000560 b9 e9 86 50 d8 74 20 c0 38 72 6c 6c 0b e0 c5 bf
       -8.228212849110479 -0.17089979929086652
000570 6f 48 41 53 7f 3d 0c c0 0e be 7c 37 25 e3 c4 bf
       -3.5300280098245405 -0.1631819268163643
000580 5e 4b 80 3e ae 53 0d c0 9a a8 18 43 3c 19 12 40
       -3.665859688081965 4.524643944149057
000590 2c f7 d4 d4 91 f6 ff bf e7 e2 4d 60 f0 fa 08 40
       -1.9976976693864783 3.122528793694403
0005a0 38 de 97 22 68 5f 0f c0 ed fe 8a 10 56 44 10 40
       -3.9215853407474945 4.0667345604740435
0005b0 f6 54 38 6e b9 ca 16 c0 6f c9 27 98 c8 5a 13 c0
       -5.697972986400819 -4.838655831745526
0005c0 01 f3 f9 a8 48 fb ce 3f 7d f6 e3 4c 19 63 06 40
       0.24204357386397393 2.7983881003445377
0005d0 cb 71 46 2e 35 cc 1b 40 8a d2 90 1d 31 1d 11 c0
       6.949421618508903 -4.2785076732294645
0005e0 69 59 96 b0 92 e9 0b c0 48 d6 e0 9b a1 49 f0 3f
       -3.489049319828315 1.0179763878817472
0005f0 20 fa ad 1d 7e 3a 0b c0 d1 80 d7 e3 8b 88 d3 3f
       -3.4035608595579703 0.3052091336267156
000600 2f 91 49 9d c0 7f fd 3f 11 03 01 74 2d a6 f8 bf
       1.8436895507848694 -1.5405706912426391
000610 3a 3d 1d 2b 29 e5 00 c0 3e a9 16 0d 56 ec 13 c0
       -2.1118949287698827 -4.980797008998989
000620 bb ca 41 8d 4c 2c f1 3f 9d d2 aa c8 13 5d 03 c0
       1.0733151929713773 -2.420447890961738
000630 7e 68 fa c8 f8 2e 11 40 83 56 a5 19 b0 66 11 40
       4.295870914729788 4.350281143871714
000640 da 43 9f c0 37 f1 1a c0 e9 02 e4 7c fc 5b eb 3f
       -6.735564241143004 0.8549787940283667
000650 59 b6 91 4c 08 9a 14 c0 0d 2b 82 3d ee 6e 11 40
       -5.150422283547948 4.358330689496836
000660 2a c3 5b 04 ab b1 00 c0 51 27 af 5c 56 71 18 40
       -2.0867519703391695 6.110681007566954
000670 bc 9d 95 da d4 2b 25 c0 af c4 ce 0a 69 db 10 c0
       -10.585608320964518 -4.214267891760001
000680 50 ad 98 1d 54 9c 21 c0 9c 8a d2 98 07 31 09 40
       -8.805329251181917 3.148940271306243
000690 80 01 b4 64 d0 b0 e0 3f 99 1e 44 cc 37 77 f8 3f
       0.5215837447031362 1.5291059474128927
0006a0 00 42 a0 54 50 e6 e8 3f d5 5c bc 7d cb 80 01 40
       0.7781144764758778 2.1878881285771095
0006b0 6e 6f 2d 4e cd 28 1b 40 65 c2 12 9a d6 7d 20 c0
       6.789845677874707 -8.245777907171211
0006c0 16 ea 97 d5 08 5e f8 3f 1c 52 14 38 6f d1 0e c0
       1.5229576438420103 -3.852262914772167
0006d0 e8 0c 74 7b d4 ad 02 40 ea 51 05 cf bd a3 e7 bf
       2.3348779339590813 -0.7387379687666542
0006e0 c7 26 48 e0 e7 21 60 3f d0 03 3c 58 3f 7d 0d c0
       0.0019692925291153493 -3.686155976611623
0006f0 b7 8b d0 92 f0 73 13 40 e6 76 39 0e 02 8d 14 c0
       4.863222402552245 -5.137703153855659
000700 9f 07 b5 f9 a8 83 e7 bf 79 7f 52 90 6a 9e d5 3f
       -0.7348217846958852 0.33779396146746127
000710 e0 03 04 c2 64 7a e6 3f f3 52 7a bd 2b 17 06 c0
       0.7024406232231932 -2.7613138964610413
000720 9d 69 a6 98 48 f5 dc bf c2 9e 04 9b 43 82 ba 3f
       -0.452470921585382 0.10355017218227672
000730 ca 58 07 15 be bc 0d c0 b6 7f 61 de 27 66 06 c0
       -3.717159427916248 -2.799880730963163
000740 94 c7 d0 28 3a bc bb bf 57 07 b7 4c ff b4 11 c0
       -0.10834086891625666 -4.426755140944656
000750 53 d7 26 20 f3 d5 1f 40 a8 1b 1e f9 4c 49 17 c0
       7.958935263033555 -5.821582691633843
000760 d4 87 31 c0 25 49 f0 bf 61 64 6d a0 e8 fd 12 40
       -1.0178582675512091 4.747957712818875
000770 36 bf 2b 59 70 4b 25 c0 93 72 72 e4 ba d2 1a 40
       -10.647341524687004 6.705791062817883
000780 92 4e 08 8c 55 e8 10 c0 fa cc b6 d1 d3 e5 e3 bf
       -4.226888835913671 -0.6218051048257671
000790 69 db 03 e3 8c 6e 0c c0 21 cb 09 e2 1d d4 0e 40
       -3.553979657702645 3.853572622226594
0007a0 41 58 21 4a 1b 5d c8 bf 3e 59 e5 af 3a f5 13 40
       -0.19034138793603186 4.989481685994461
0007b0 23 07 cb b1 dd cd 10 c0 95 bb f5 9b a9 54 05 40
       -4.201041009919012 2.666339128910702
0007c0 e7 5c 44 ac 98 07 10 40 a8 f7 7d fd d3 95 db bf
       4.007418338463345 -0.43101978068431857
0007d0 c7 13 d2 27 06 41 10 c0 ec b7 26 41 62 0f 12 40
       -4.063500044056986 4.515023248661219
0007e0 6f 40 f8 5a ea 85 0d 40 7b c3 b0 2e 5e 82 14 c0
       3.690388403607407 -5.127312402285379
0007f0 ce d1 79 e3 5b fa ce bf a8 23 ec c7 8a e3 0d 40
       -0.2420153485032998 3.7361045473994245
